good_model/b1.npy (npy, 16512 bytes, 1 tensors)

array f8 [1, 2048]
-0.04990186616530342 0.01436064072611094 -0.05363114937711939 -0.02233806903584588 -0.018656847298907955 -0.013912070009928456 -0.05946199782729634 -0.04159511661582659
-0.022427267267969578 -0.019091845750785926 0.03242567412092597 -0.00576043461581295 -0.0056537770136962946 -0.007450362316090663 0.02122535862596878 0.02317110885060262
-0.04991673726178814 -0.005167756334379962 0.00975309358805527 -0.03452346769692626 0.05593791660862514 -0.035535339132120314 -0.01797054577784313 -0.004321853736622753
-0.003837083757725069 0.01354468004142773 -0.008254351095304487 0.00013822053801925107 -0.018149607469591465 -0.03498452608159721 -0.05084603057752885 -0.002446830911473464
-0.016513925957219594 0.02769860956430453 0.016171441473356803 -0.010787046231441413 0.02391757669408324 -0.030768922415375724 0.035288367403668745 0.05576907956705724
0.01351255679102584 -0.05845277369807862 -0.007415547181325389 0.01125029999871899 0.01254602017530679 -0.004120329181529862 0.0009086171833403125 -0.007996214425086271
0.0008257636968936726 -0.06215147211205119 -0.04914600216185757 0.0006084673821593473 -0.0376429692599869 -0.013290879117435633 -0.0179515482545671 0.006911163982457762
-0.059360564452580034 0.001197692708702746 0.018277442252367538 -0.0032453910760648144 -0.007932255655554762 0.010979610445037204 0.001383883484710491 -0.014265693291594453
-0.04256342567306541 -0.04781163709146973 0.03168856001734714 -0.01469087525476308 -0.0035373885701001423 -0.0001820235276427903 -0.013605578238552327 0.009924479293066337
-0.022366462819268754 0.0018283171616237685 -0.024113077749494664 -0.03458791820817933 0.002904065351263611 -0.021040569123157993 -0.010303528305320529 -0.02211062427964038
-0.019723173598507216 0.021240175718216944 0.008992231708606807 -0.14136668351179107 -0.04935316727374606 0.04074335192774733 0.0009655103117975807 -0.02182133102238261
0.0194827481303011 -0.005000328240988614 0.0058826781600777815 -0.005281664523920557 -0.01226066817417626 -0.03069464015227411 -0.028862654752600136 -0.02948166548184147
0.01726935510034044 -0.006736909951100695 -0.015153961817269081 -0.026168451045570265 -0.028971295042995115 0.016027450200084743 -0.02505993687974416 0.005269453983497533
0.006051706231291254 0.01514076251659191 -0.05183510319612763 0.002407638258018829 -0.011305529622108837 -0.04215848231491555 -0.010369915219181932 0.02437332191126245
0.008506495894137982 -0.010587430037853621 -0.044798886223330905 -0.05302878479949679 -0.025938943073761482 -0.008815673874074637 -0.01993545719376882 -0.0032570034147807784
-0.01666290283067184 -0.011381786885959875 -0.01715310848075419 -0.02173989861771658 0.015231946738616881 -0.024519779368277653 -0.002836425216473268 -0.015315255205037716
0.002503307581831742 0.0030581024752378526 -0.024652682168450117 -0.018257517558470476 0.016587027340282612 0.00796977579828305 -0.006503624228797559 0.013553822355373876
0.010400494591770169 0.04809373415522224 -0.04540000077019538 -0.03210383159598564 -0.019378905365622832 0.002922998798331868 0.03038866422631704 -0.03509375598058637
-0.0176478101089065 0.03833357299238433 0.005849306388087594 -0.034930481467157326 0.03208462344390351 -0.028581768470873313 0.056281183713419086 0.00296123403205968
0.0021359828066560382 -0.00874172650352808 0.04550274528441313 -0.002322167025263636 -0.025118632666834964 0.020729326790406465 -0.02915710769171404 -0.010478506075087034
0.017807260502777665 0.0007784262297284182 -0.029922745410095094 -0.027830182466568338 -0.04024945277614972 0.005215327639907836 0.012997721080041744 -0.011242934689451325
-0.02025229921983587 -0.019749672396564975 0.019533003933867258 -0.04163781806782372 -0.026693328233489893 -0.012913741856224929 -0.01825265068827282 0.0029332630533258687
0.0031440978325284153 0.04081428913211856 -0.025881582156470656 -0.013227239737266446 -0.010760844935519107 0.005868460126652318 0.008468279002926859 0.05823441696513298
0.008725205896344053 -0.0056896386319790675 -0.009704191775774041 -0.0186320826284855 -0.0030819802384985787 -0.015176803746187394 0.009786897235577564 -0.05195400062617887
0.008719662452813515 -0.017432845663042314 0.0012001896232340925 -0.05210915603301678 0.04922156789074798 0.023066879031121104 -0.021523639538787987 -0.00530940323060196
-0.0346991820334581 0.002706818393216855 -0.1021413186998002 -0.01750233634698359 0.0028752917592643973 0.007252310210511058 -0.018201100201460315 -0.04396793675626983
-0.012923494504727701 -0.005572339267395146 -0.03552298197381126 0.020940682383905854 -0.014439215878608472 0.02072930478786774 -0.002832833622209059 0.017983783355392986
0.002044400016534513 -0.00860759425410152 0.0018533178669182828 0.05060324717251842 -0.058408884993850656 -0.023527365927898367 -0.05705171571987463 0.006299426737264984
-0.019427689916829607 0.012346347877317589 -0.014296137989824346 -0.020561101929405197 -0.01898835938554557 0.03523784278077818 0.03228481928942443 0.016506191423356395
0.03139207216907896 0.03711301808154302 -0.037913704284355886 -0.007631173984023081 -0.007405677557225787 0.0015504767955510416 0.017317798715453296 -0.026538686584371095
-0.021451071374114276 -0.024182667809221844 0.005248170749177841 0.017392163591112838 -0.023096372025961313 -0.05115770736032254 -0.03613792454598643 0.038773130976073024
-0.020159524385612783 -0.015097575971356674 -0.006014949987497552 -0.003491716986568986 0.023114520342236905 -0.009633525967531305 -0.006992601937060553 -0.009948311954334505
00000000: 1bf2 60c6 bc8c a9bf 6661 2592 1c69 8d3f
00000010: c944 3ec1 8a75 abbf fbe6 db6f cadf 96bf
00000020: 8729 fbd3 c71a 93bf 06cd b26d ee7d 8cbf
00000030: a1ce 0b90 cd71 aebf 9f99 1383 f44b a5bf
00000040: 947d d16d 2cf7 96bf 9fc7 7a14 d08c 93bf
00000050: ebdd cc13 199a a03f 4f13 92e4 4098 77bf
00000060: 8296 f635 6a28 77bf 18f9 da67 4584 7ebf
00000070: 89df 93b4 19bc 953f cacd e6ca 2aba 973f
00000080: 81f3 1fc4 af8e a9bf 1e9f 3207 c92a 75bf
00000090: a5d5 f60f 6ef9 833f cfd6 6759 0fad a1bf
000000a0: c27e e104 e5a3 ac3f a875 d91e b031 a2bf
000000b0: b1e0 a0e9 de66 92bf 046c 4fc7 cab3 71bf
000000c0: 02d0 0ba8 f26e 6fbf 4271 802e 50bd 8b3f
000000d0: 4443 0840 a8e7 80bf 5bce 7f61 e91d 223f
000000e0: 398b 118a cf95 92bf d3e5 c5e6 7de9 a1bf
000000f0: 797e ecac 7d08 aabf 02bd cb57 600b 64bf
00000100: 88c7 a8cf 06e9 90bf afb8 e438 065d 9c3f
00000110: 5f6b 0711 3f8f 903f ee9d 46d6 8417 86bf
00000120: a379 cd66 d97d 983f 745f 076e e381 9fbf
00000130: 7721 db1f 5111 a23f 51b0 bcc9 c38d ac3f
00000140: 52bb 05ac 78ac 8b3f da97 c99e 85ed adbf
00000150: 5b05 03ca c35f 7ebf 917a 84b4 650a 873f
00000160: 317f c852 bab1 893f abb5 5571 7ae0 70bf
00000170: e3ce 238b 08c6 4d3f 8f94 94bb 5160 80bf
00000180: 6bd3 4309 020f 4b3f 3031 3d58 51d2 afbf
00000190: 6b55 0730 aa29 a9bf 803f e7c0 31f0 433f
000001a0: 81bd ca73 f045 a3bf b6e2 2799 3f38 8bbf
000001b0: f8e9 a902 e461 92bf 2cdd 8274 e14e 7c3f
000001c0: b8ea fd05 8264 aebf 3028 eec0 7c9f 533f
000001d0: 0dee e962 52b7 923f 100a 1a11 1496 6abf
000001e0: f831 fe54 c93e 80bf 6127 465e 7a7c 863f
000001f0: 6749 bb93 6dac 563f 4827 23f1 5437 8dbf
00000200: a607 8b92 dfca a5bf 8f27 5a53 c47a a8bf
00000210: 061a dda1 7b39 a03f b98c 26e6 3f16 8ebf
00000220: 4e2f 1907 71fa 6cbf 7917 5832 b2db 27bf
00000230: 323c 9fcc 3ddd 8bbf e1c9 f20f 4953 843f
00000240: b405 58e9 3be7 96bf 8cef 9d9a 84f4 5d3f
00000250: fe24 5c41 19b1 98bf b4ea 14f3 81b5 a1bf
00000260: bc24 b136 44ca 673f 60bf 17b1 a88b 95bf
00000270: 728d d628 041a 85bf 5d67 b3e0 2aa4 96bf
00000280: 2dd0 50c6 4f32 94bf 6cbd 4810 fcbf 953f
00000290: 6327 dae8 846a 823f 09ac 36b1 4d18 c2bf
000002a0: 901d ca7e d144 a9bf 7b41 1e08 50dc a43f
000002b0: a68f 479b 49a3 4f3f a4a2 62bc 5458 96bf
000002c0: 5130 3918 49f3 933f 7d9e 3a64 397b 74bf
000002d0: da82 f764 6f18 783f 9700 6106 3aa2 75bf
000002e0: c17a ae06 1f1c 89bf 494d 776e 6a6e 9fbf
000002f0: 50df f3f8 2b8e 9dbf b7f2 4d14 7130 9ebf
00000300: 7f11 84cd 0eaf 913f ad3d a87e 2998 7bbf
00000310: e1af 4753 0a09 8fbf 54f7 b505 e7cb 9abf
00000320: 6002 eeb2 a6aa 9dbf 3560 caf9 7f69 903f
00000330: fd71 5ae5 4fa9 99bf 772d 6e48 6c95 753f
00000340: 0007 9385 acc9 783f 401a c3be 1e02 8f3f
00000350: f338 0672 218a aabf 1971 85f2 2eb9 633f
00000360: bb65 ed7f 5a27 87bf ea46 95ed cb95 a5bf
00000370: b155 d475 d23c 85bf aed7 03f2 51f5 983f
00000380: 3cde 598d da6b 813f 6214 17ce dcae 85bf
00000390: caee 732e e1ef a6bf 7fc1 ebc0 9626 abbf
000003a0: 2e48 c700 bd8f 9abf 2dcf d9b7 f30d 82bf
000003b0: 6f51 b6e2 f569 94bf 4b3e c864 6eae 6abf
000003c0: 1f4d db7a 1410 91bf a5d9 8f93 554f 87bf
000003d0: 915e cc9f 9590 91bf 3067 53e6 fb42 96bf
000003e0: 1d31 c648 ed31 8f3f 81b1 f789 b61b 99bf
000003f0: 948a 5a31 6a3c 67bf f45d e2c1 9a5d 8fbf
00000400: 57f6 4306 d181 643f f88b ce43 4e0d 693f
00000410: ce4e b07e 8d3e 99bf 7b73 4743 19b2 92bf
00000420: 4084 db8f 30fc 903f f8d6 4733 7552 803f
00000430: 6bfa e355 8ba3 7abf d859 043e 1bc2 8b3f
00000440: 7f2e 12c1 da4c 853f 52ab adee bd9f a83f
00000450: 05bd 173d ab3e a7bf c3e5 8fd5 e96f a0bf
00000460: c64a 1c53 10d8 93bf 9eb7 d707 f9f1 673f
00000470: 23aa 15bc 341e 9f3f fdf9 750c cff7 a1bf
00000480: 251a 0e7d 4412 92bf 39a7 ae44 75a0 a33f
00000490: 2607 423a 71f5 773f 38e8 1177 68e2 a1bf
000004a0: d1c5 ca50 656d a03f b681 6003 8a44 9dbf
000004b0: 94cd db26 e3d0 ac3f 9d19 5a6a 2842 683f
000004c0: d7bb 9409 7b7f 613f edbb 8bab 2ee7 81bf
000004d0: 32e2 bfc5 224c a73f bb4a bded ef05 63bf
000004e0: 9413 4ce7 b2b8 99bf f314 8892 113a 953f
000004f0: 316d ed5f 5cdb 9dbf b93c 3a47 c175 85bf
00000500: b68f f605 113c 923f 98e2 7999 e981 493f
00000510: 9f85 c573 11a4 9ebf 857a 24ee 837f 9cbf
00000520: c8fe b586 939b a4bf fbd7 6bda aa5c 753f
00000530: d2c2 b097 8c9e 8a3f e805 6b26 8906 87bf
00000540: 27a2 45cb 04bd 94bf d928 3314 4239 94bf
00000550: c1b9 5ab4 7500 943f 6d96 c155 8d51 a5bf
00000560: db0d 23ef 7e55 9bbf af22 8817 8572 8abf
00000570: 53f5 15a7 d2b0 92bf 0da4 4e9c 7f07 683f
00000580: b65e b7ab a6c1 693f 1b5a 104a 9ce5 a43f
00000590: 081e b993 b380 9abf b10a b410 e216 8bbf
000005a0: c561 9a28 c809 86bf fe4d 26c5 8609 783f
000005b0: 66c1 f72a d157 813f dfd6 bbc8 e6d0 ad3f
000005c0: f728 ce4f 85de 813f b545 9bbd 044e 77bf
000005d0: e70d 7d92 cadf 83bf e6cf 2ee6 4914 93bf
000005e0: ddc2 998a 613f 69bf 5942 fb1d 0415 8fbf
000005f0: 3aee 721c 270b 843f 36ee 2bfb b699 aabf
00000600: ba33 8948 9ddb 813f 2ff5 fe77 ead9 91bf
00000610: fb0b 92cb f5a9 533f adca f721 0dae aabf
00000620: 867c b2c0 9133 a93f 54e1 3c0c d89e 973f
00000630: 9dd3 a3ff 4a0a 96bf b292 c913 50bf 75bf
00000640: dd34 1058 17c4 a1bf 11d6 330f 9c2c 663f
00000650: f4cd 62f7 ee25 babf 1905 dbe8 21ec 91bf
00000660: 32e9 5182 ec8d 673f d820 cb32 99b4 7d3f
00000670: 6f49 7728 4fa3 92bf 4bad e124 f782 a6bf
00000680: 2a94 fb11 a277 8abf c39e a66e 05d3 76bf
00000690: 28f7 aa7b 1130 a2bf 94ac fa67 7971 953f
000006a0: a2fb d3bf 4e92 8dbf a6e4 8718 103a 953f
000006b0: a98e 65f8 e134 67bf e5a2 7a45 576a 923f
000006c0: 232a c0e6 6abf 603f 0480 8cbe dba0 81bf
000006d0: 0b11 29e8 605d 5e3f 62d0 5a37 abe8 a93f
000006e0: ff56 b0f5 c4e7 adbf 19a9 e2cc 8e17 98bf
000006f0: 5b25 65ea e135 adbf 5222 1f7d 6dcd 793f
00000700: d785 5133 dae4 93bf 016d ddc2 0a49 893f
00000710: 0fd1 0029 4b47 8dbf 0213 6d31 f80d 95bf
00000720: 0630 433a af71 93bf 976a a6cc b10a a23f
00000730: f5bc 02c6 a287 a03f 7c1b 61c1 ffe6 903f
00000740: 77c5 a326 9f12 a03f f408 d53d 7a00 a33f
00000750: 8b6b f1cf 6c69 a3bf c53d 10ab dd41 7fbf
00000760: 19ac 9b6e 6a55 7ebf 1689 53c8 2b67 593f
00000770: 2e80 7ccc c1bb 913f 03ad d51b f52c 9bbf
00000780: be5d 1008 45f7 95bf ff88 7b5d 57c3 98bf
00000790: 1066 b41b 1b7f 753f 9f71 5257 40cf 913f
000007a0: 6ef0 074a 93a6 97bf af12 1ad0 5731 aabf
000007b0: f301 2488 ab80 a2bf bdf2 0263 12da a33f
000007c0: 0aa9 c1c7 b2a4 94bf d6e7 5d58 7aeb 8ebf
000007d0: 25ea bbd7 21a3 78bf a256 7448 a99a 6cbf
000007e0: 7804 bb33 55ab 973f fe42 cef7 bdba 83bf
000007f0: 1d50 234a 46a4 7cbf 2a45 f4d3 c75f 84bf
